Data_and_ML/feedforwardnet.pth (torch, 414043 bytes, 10 tensors)

conv1.0.weight f4 [16, 3, 3, 3]
0.14778742 -0.1238928 0.05367618 0.022822086 0.14572307 0.021516053 0.1886665 0.021399507
-0.09278855 -0.052097693 0.12708531 -0.10916314 -0.16598736 0.03146591 0.15455082 0.13533604
-0.017773695 -0.0127438 0.16992202 -0.16662757 -0.18767145 0.04283717 -0.10837516 0.07017562
-0.05398308 0.082686305 -0.1712051 0.030533534 -0.17798604 -0.16711876 0.038454507 0.092606425
-0.109180756 -0.090328306 0.18456225 0.05083764 0.1840578 0.053123754 0.06926374 -0.1842585
-0.056222532 0.12880357 0.042417824 0.16880228 0.064150356 -0.021754552 -0.13946125 0.1749894
0.0031990763 -0.034640107 0.086853914 -0.14864957 -0.120199814 -0.022585068 -0.11938386 0.14437726
0.04750185 0.025766399 -0.17483778 0.15216449 0.11049357 0.12241462 0.11952982 0.11884273
0.026727067 0.05353025 0.15664971 -0.035282414 0.038485534 -0.13893871 0.1215975 -0.010810525
0.05545797 0.1507982 0.13252202 0.06489925 0.050201748 -0.158036 -0.131169 -0.060819488
-0.1129141 -0.18942165 0.021134771 0.10945739 -0.11396679 0.028201912 -0.14128871 -0.072496586
-0.028609846 0.11140386 0.1231478 0.15477405 -0.16445975 0.083526015 0.13441053 -0.12601924
-0.07256446 -0.012323234 -0.03723132 0.16104126 -0.13557976 -0.0423684 -0.04193439 -0.07255382
-4.9325998e-05 0.10318654 -0.07944385 0.024520356 0.12715214 -0.16642772 0.10771379 0.086298
-0.09468749 0.1716345 -0.10685365 -0.07715872 0.15870157 -0.08985943 -0.019326892 -0.13826583
-0.088127576 0.10244352 0.022126963 -0.057339482 -0.17947067 0.11703377 -0.008258927 -0.10088299
0.027291201 -0.06987127 -0.13256243 0.017898725 0.06358568 0.04599753 0.13570356 -0.15835544
0.069250576 0.18987273 -0.13153982 -0.1467688 -0.03557225 -0.05478496 -0.109254666 0.09587128
-0.11360109 0.033880714 0.08951805 -0.17330879 0.112771355 -0.011487229 0.06414112 0.17707492
0.024726363 -0.18616726 0.072807364 0.07447577 0.1880294 0.123593114 0.0044499617 -0.08176965
0.1061345 -0.14785257 0.110395834 -0.09986857 0.107253045 -0.021445332 -0.16220528 0.100832
-0.07343963 0.12860484 0.16941026 -0.041213024 -0.15605329 0.074132174 0.043794066 0.10861224
-0.059721798 -0.084265836 0.06796247 0.07698725 -0.0828422 -0.13493554 0.15960817 -0.15376665
0.1631501 -0.093031965 -0.18146318 -0.0026718392 -0.12193304 0.099885836 0.043822497 0.03731708
-0.10651394 -0.16362354 -0.1640966 -0.027407572 -0.032840427 -0.033790924 0.10928644 0.16345106
0.074182905 -0.010938192 0.09532862 -0.002313061 -0.16305453 0.1826317 -0.0010937974 0.10767864
0.0013396578 0.07573388 0.0061760475 -0.008240861 -0.012865689 0.20685965 -0.14645717 0.04596456
0.1620745 -0.11588498 -0.11263011 0.19955018 0.10301439 -0.13057333 0.16142997 0.0281668
0.13739426 0.10411307 -0.0011222344 -0.013472426 0.048706442 -0.18001111 -0.067087874 -0.13396926
-0.15266673 0.028403703 0.12976143 -0.052253943 0.070671335 0.18299717 0.16379604 -0.039676532
0.11906427 0.012681247 -0.17806786 0.10454219 0.085815646 -0.09517886 0.1037715 -0.11158005
-0.15570036 0.0681511 -0.045245785 -0.0748318 0.061024696 -0.12577589 -0.1184391 0.19028462
00000000: 9655 173e 82bb fdbd 8edb 5b3d 62f5 ba3c
00000010: 6e38 153e 6f42 b03c ca31 413e 054e af3c
00000020: ec07 bebd 6464 55bd a722 023e ed90 dfbd
00000030: 97f8 29be 66e2 003d 9242 1e3e 8895 0a3e
00000040: 249a 91bc 5fcb 50bc 0a00 2e3e 6ba0 2abe
00000050: f22c 40be 0776 2f3d ccf3 ddbd 3cb8 8f3d
00000060: 5d1d 5dbd 7057 a93d 6450 2fbe 7621 fa3c
00000070: f941 36be 2e21 2bbe 7982 1d3d 70a8 bd3d
00000080: 299a dfbd 0cfe b8bd e3fd 3c3e 213b 503d
00000090: a679 3c3e 4b98 593d 26da 8d3d 43ae 3cbe
000000a0: 9949 66bd 15e5 033e 50be 2d3d 81da 2c3e
000000b0: 4361 833d 9a36 b2bc eece 0ebe 6c30 333e
000000c0: 98a7 513b c9e2 0dbd 77e0 b13d 9837 18be
000000d0: 522b f6bd 5204 b9bc 867f f4bd a2d7 133e
000000e0: 4d91 423d 0e14 d33c ad08 33be 02d1 1b3e
000000f0: 744a e23d 84b4 fa3d 0dcc f43d d163 f33d
00000100: b9f2 da3c 8942 5b3d c868 203e 4b84 10bd
00000110: 02a3 1d3d f345 0ebe 1c08 f93d a11e 31bc
00000120: e527 633d d86a 1a3e dab3 073e e6e9 843d
00000130: 59a0 4d3d 30d4 21be 2b51 06be db1d 79bd
00000140: 823f e7bd c0f7 41be d422 ad3c 322b e03d
00000150: 6c67 e9bd b207 e73c fdad 10be 1779 94bd
00000160: 325f eabc b527 e43d ea34 fc3d 177d 1e3e
00000170: 2368 28be b00f ab3d eaa2 093e 300b 01be
00000180: ad9c 94bd 64e7 49bc de7f 18bd 00e8 243e
00000190: 6cd5 0abe 7d8a 2dbd 65c3 2bbd 1997 94bd
000001a0: 63e3 4eb8 7753 d33d 75b3 a2bd eade c83c
000001b0: 2c34 023e 076c 2abe 0c99 dc3d 01bd b03d
000001c0: 84eb c1bd f4c0 2f3e 16d6 dabd 6405 9ebd
000001d0: aa82 223e 3908 b8bd 6e53 9ebc 8f95 0dbe
000001e0: 3b7c b4bd e9cd d13d 9b43 b53c cedc 6abd
000001f0: 29c7 37be 67af ef3d 7350 07bc be9b cebd
00000200: cc91 df3c ab18 8fbd 72be 07be 59a0 923c
00000210: 3639 823d e867 3c3d e0f5 0a3e ee27 22be
00000220: 3fd3 8d3d ff6d 423e 60b2 06be 8f4a 16be
00000230: 35b4 11bd 3266 60bd e9c0 dfbd 2958 c43d
00000240: b0a7 e8bd 81c6 0a3d 3d55 b73d dc77 31be
00000250: abf4 e63d ee34 3cbc 6b5c 833d 2153 353e
00000260: f18e ca3c a1a2 3ebe 071c 953d c186 983d
00000270: c78a 403e 631e fd3d fcd0 913b d976 a7bd
00000280: 0b5d d93d aa66 17be 3617 e23d e587 ccbd
00000290: 7ca7 db3d 1fae afbc 2419 26be 0281 ce3d
000002a0: 8467 96bd fdb0 033e e279 2d3e fdce 28bd
000002b0: 6fcc 1fbe 9cd2 973d 6861 333d 1870 de3d
000002c0: d89e 74bd 9193 acbd e82f 8b3d 7eab 9d3d
000002d0: 2ca9 a9bd 8b2c 0abe 5370 233e 0175 1dbe
000002e0: d210 273e 8b87 bebd 7cd1 39be 061a 2fbb
000002f0: 08b8 f9bd f290 cc3d 387f 333d cbd9 183d
00000300: fb23 dabd ee8c 27be f008 28be d885 e0bc
00000310: af83 06bd 5a68 0abd 92d1 df3d b75f 273e
00000320: 35ed 973d 1a36 33bc a73b c33d b996 17bb
00000330: c4f7 26be ce03 3b3e c05d 8fba 9e86 dc3d
00000340: 7597 af3a 5d1a 9b3d 7160 ca3b ad04 07bc
00000350: 9cca 52bc 04d3 533e def8 15be 5645 3c3d
00000360: dcf6 253e 1b55 edbd 9daa e6bd e256 4c3e
00000370: 35f9 d23d 04b5 05be e64d 253e 10be e63c
00000380: 15b1 0c3e 3c39 d53d f017 93ba 73bb 5cbc
00000390: 6880 473d d554 38be 5e65 89bd 3d2f 09be
000003a0: ab54 1cbe e2ae e83c 2ee0 043e 3b08 56bd
000003b0: 22bc 903d 9c63 3b3e 26ba 273e dc83 22bd
000003c0: f8d7 f33d 01c5 4f3c 6c57 36be 371a d63d
000003d0: 1dc0 af3d 22ed c2bd 2786 d43d 1584 e4bd
000003e0: ea6f 1fbe ce92 8b3d a553 39bd 6a41 99bd
000003f0: 08f5 793d 65cb 00be 3390 f2bd f9d9 423e

conv1.0.bias f4 [16]
-0.07468615 -0.013394818 0.1645055 0.17238176 0.008265294 -0.0588199 0.11703706 0.0024448992
0.08896548 0.14245857 -0.16492052 -0.087166734 0.15554534 -0.05635414 -0.10205229 -0.08516822
00000000: 0df5 98bd f075 5bbc 2174 283e d884 303e
00000010: 286b 073c 23ed 70bd 20b1 ef3d 9a3a 203b
00000020: 8933 b63d a9e0 113e ede0 28be 7984 b2bd
00000030: 4747 1f3e 99d3 66bd cb00 d1bd ad6c aebd

conv2.0.weight f4 [32, 16, 3, 3]
-0.051930897 -0.0319652 0.08310037 -0.032202963 -0.049106248 -0.026766386 -0.053356286 0.069651105
0.049455125 -0.03477595 0.018411111 0.042838596 0.07478053 0.012172694 -0.055776276 -0.051216815
-0.0034824861 -0.04065963 -0.05476091 0.065151095 -0.038777575 -0.02668832 -0.06371244 0.039495353
0.027780019 -0.049374618 -0.0061460207 -0.06986979 0.023647366 0.08080377 0.038630877 0.0710176
-0.08072831 0.018891357 0.0447005 0.08302676 0.07590683 -0.021842765 -0.07739434 0.005739146
0.06549816 -0.051192228 -0.020635776 -0.035004053 -0.06948751 0.02608398 -0.05658066 -0.019609425
-0.070455745 -0.06476895 -0.0069711055 0.068321526 0.038533133 0.036808662 -0.004152636 -0.055611502
-0.08250473 -0.0801609 0.036041953 -0.070506014 0.066673994 -0.04361628 0.025233759 -0.072924554
-0.04679589 0.08100379 -0.015749164 0.035160486 0.05010801 -0.026806237 -0.067357615 -0.0075535555
0.00023316314 0.02223997 -0.063822575 0.042715907 0.039839715 -0.043169055 -0.008425247 -0.05777634
0.041152596 -0.041347276 -0.027528888 0.01432535 0.0029961905 -0.062065728 -0.07529818 -0.07820171
0.061499987 0.002727473 -0.04146406 -0.041287668 0.04546364 0.008209382 0.06207065 0.042048123
-0.063412905 -0.06751912 0.055282027 0.08329289 0.027676282 -0.03776593 0.0036901527 0.008701037
-0.0035213218 0.033995844 0.043466248 -0.05044467 -0.052644458 -0.024598304 -0.06461806 -0.031073079
0.0025030067 0.057870775 0.024851836 -0.028872773 -0.05299746 -0.033102468 -0.074097216 0.054271422
-0.027659992 -0.07352669 -0.06630406 0.0644031 -0.075680055 -0.004768667 0.0001032041 0.052110005
-0.052200206 -0.07433806 -0.040271413 -0.016358195 0.025629804 0.015666364 0.05958376 -0.012028938
0.020094246 -0.014472259 -0.0378595 0.061776172 -0.045058887 -0.026198605 -0.070800535 0.035190903
-0.04484722 0.04739924 0.044364773 0.016932825 0.037440468 0.0014578295 -0.0008548796 -0.059215046
-0.065163136 0.0021935217 0.06896688 0.0011276905 -0.02948214 0.029263187 0.07725142 0.00647314
-0.0771166 -0.057811774 0.042950228 0.042031232 -0.053788852 -0.03703151 -0.042022508 0.03784117
-0.012996417 -0.07689099 0.0945656 -0.003676486 -0.053623892 -0.07298017 0.0031299517 0.0129454555
0.05676292 -0.039893497 -0.036930766 -0.019792631 0.02541376 0.030927226 0.047904786 -0.006208241
0.06390325 0.08484259 -0.06371538 -0.034207005 0.06140577 0.013130059 0.010384037 -0.030886065
0.053509258 -0.054666523 0.081762545 -0.00093612686 -0.0779032 0.013503157 0.027857577 -0.004062411
0.06300158 -0.068173654 -0.016982658 -0.039568927 0.08039218 -0.01723558 -0.017053753 0.0018531819
-0.029175691 0.032622866 -0.07433029 0.03773144 0.042167973 -0.0705705 -0.08191133 0.0600162
-0.04377868 -0.05655726 -0.035694882 -0.058085676 -0.012401064 -0.009044491 -0.035307754 -0.026038265
-0.06321318 -0.06662991 -0.07528683 -0.071528606 -0.06488172 -0.021303052 -0.047368255 -0.04831322
0.077922136 0.02687814 -0.05202308 0.056832153 0.07818883 -0.0343397 0.041153356 0.044853438
-0.010863811 0.06826489 0.078916766 0.014130078 -0.023854636 0.029151356 -0.058387462 -0.02066471
0.052888446 -0.051381957 0.0665909 -0.035488013 -0.05454818 -0.056251153 -0.06799462 0.023706483
00000000: 7eb5 54bd f1ed 02bd 8730 aa3d 41e7 03bd
00000010: a223 49bd 2e45 dbbc 1f8c 5abd 3da5 8e3d
00000020: 7591 4a3d 3a71 0ebd e6d2 963c 8677 2f3d
00000030: 8926 993d fb6f 473c aa75 64bd b9c8 51bd
00000040: 6c3a 64bb b68a 26bd fa4c 60bd f06d 853d
00000050: 3cd5 1ebd 77a1 dabc ab7b 82bd e1c5 213d
00000060: ec92 e33c 0a3d 4abd 8f64 c9bb e417 8fbd
00000070: 1fb8 c13c 727c a53d 693b 1e3d ad71 913d
00000080: e254 a5bd 0cc2 9a3c df17 373d ef09 aa3d
00000090: 0a75 9b3d 99ef b2bc ec80 9ebd 720f bc3b
000000a0: e623 863d f1ae 51bd 5c0c a9bc 6960 0fbd
000000b0: 784f 8ebd 12ae d53c 1fc1 67bd f2a3 a0bc
000000c0: 1a4b 90bd 95a5 84bd df6d e4bb 28ec 8b3d
000000d0: ebd4 1d3d aec4 163d d612 88bb e3c8 63bd
000000e0: 3df8 a8bd 662b a4bd baa0 133d 7565 90bd
000000f0: 608c 883d fca6 32bd 07b7 ce3c 7859 95bd
00000100: 0cad 3fbd 51e5 a53d 6404 81bc 7104 103d
00000110: 0f3e 4d3d c198 dbbc caf2 89bd d183 f7bb
00000120: 417d 7439 9930 b63c 69b5 82bd e0f6 2e3d
00000130: f82e 233d 09d2 30bd 0c0a 0abc e2a6 6cbd
00000140: a08f 283d c35b 29bd 4384 e1bc dfb4 6a3c
00000150: bc5b 443b a238 7ebd ef35 9abd 3828 a0bd
00000160: 69e7 7b3d 67bf 323b 38d6 29bd 421d 29bd
00000170: 1538 3a3d a580 063c cb3d 7e3d a73a 2c3d
00000180: a0de 81bd 7747 8abd 686f 623d 7695 aa3d
00000190: 5fb9 e23c 73b0 1abd 7dd6 713b cb8e 0e3c
000001a0: fac5 66bb 3a3f 0b3d aa09 323d 129f 4ebd
000001b0: b7a1 57bd 6282 c9bc 7956 84bd f88c febc
000001c0: 7c09 243b e809 6d3d 1496 cb3c 9886 ecbc
000001d0: dd13 59bd 7496 07bd 48c0 97bd b64b 5e3d
000001e0: 3597 e2bc 2995 96bd 6cca 87bd c6e5 833d
000001f0: 25fe 9abd 7a42 9cbb 476f d838 4d71 553d
00000200: e2cf 55bd 8e3e 98bd a3f3 24bd 9f01 86bc
00000210: 98f5 d13c bf56 803c 1a0e 743d 0615 45bc
00000220: b09c a43c 0e1d 6dbc 9012 1bbd 0309 7d3d
00000230: ab8f 38bd 759e d6bc dfff 90bd 5624 103d
00000240: b8b1 37bd b525 423d d6b7 353d b5b6 8a3c
00000250: 2d5b 193d a414 bf3a 001a 60ba 7a8b 72bd
00000260: 4074 85bd 30c1 0f3b 823e 8d3d 04cf 933a
00000270: 8784 f1bc 5ab9 ef3c fe35 9e3d a21c d43b
00000280: 4fef 9dbd 0acc 6cbd 94ec 2f3d f128 2c3d
00000290: b351 5cbd 5aae 17bd cb1f 2cbd 58ff 1a3d
000002a0: ecee 54bc 0679 9dbd 9cab c13d 33f1 70bb
000002b0: baa4 5bbd a176 95bd e01f 4d3b 2d19 543c
000002c0: 3c80 683d 5d67 23bd b744 17bd 2824 a2bc
000002d0: 8530 d03c 185b fd3c cf37 443d 806e cbbb
000002e0: b5df 823d f4c1 ad3d 367d 82bd a51c 0cbd
000002f0: 9e84 7b3d 751f 573c cf21 2a3c c604 fdbc
00000300: 862c 5b3d 01ea 5fbd 1f73 a73d 6966 75ba
00000310: b78b 9fbd 583c 5d3c 9335 e43c f91d 85bb
00000320: f906 813d a19e 8bbd 371f 8bbc 0713 22bd
00000330: a8a4 a43d a231 8dbc 50b4 8bbc 77e6 f23a
00000340: dc01 efbc 8e9f 053d 7b3a 98bd 488c 1a3d
00000350: 53b8 2c3d 4487 90bd 21c1 a7bd 8cd3 753d
00000360: 4651 33bd 96a8 67bd cc34 12bd 3feb 6dbd
00000370: d52d 4bbc 582f 14bc dd9e 10bd 334e d5bc
00000380: e975 81bd 4375 88bd fb2f 9abd 977d 92bd
00000390: b5e0 84bd bd83 aebc 3705 42bd 15e4 45bd
000003a0: a495 9f3d 8c2f dc3c 2716 55bd d5c8 683d
000003b0: 7721 a03d c9a7 0cbd 6c90 283d 3db8 373d
000003c0: 20fe 31bc 76ce 8b3d 1d9f a13d d881 673c
000003d0: cc6a c3bc d3ce ee3c b127 6fbd 0a49 a9bc
000003e0: 8ea1 583d e375 52bd cf60 883d e15b 11bd
000003f0: ea6d 5fbd 9c67 66bd c340 8bbd 1934 c23c

conv2.0.bias f4 [32]
-0.08284904 -0.00635731 0.04510166 -0.049567033 -0.011970252 0.0014427346 -0.048651733 -0.042557124
-0.0045762514 -0.04843891 -0.041106362 -0.0064949263 -0.06352249 -0.013527177 0.072606154 0.01936465
-0.022593949 0.03134268 0.038019426 -0.051541224 0.038900994 0.07426398 -0.031303167 -0.041503645
-0.0261887 -0.05504486 -0.067179166 0.03333093 -0.004117562 -0.07068068 0.06959117 -0.05113382
00000000: c2ac a9bd fb50 d0bb 85bc 383d cd06 4bbd
00000010: e01e 44bc 241a bd3a 0a47 47bd 6150 2ebd
00000020: 61f4 95bb e167 46bd 255f 28bd 64d3 d4bb
00000030: 1418 82bd 18a1 5dbc 89b2 943d 9da2 9e3c
00000040: f216 b9bc 2f61 003d 42ba 1b3d e41c 53bd
00000050: a656 1f3d b717 983d c037 00bd baff 29bd
00000060: af89 d6bc b876 61bd 3b95 89bd 0386 083d
00000070: 9dec 86bb 08c1 90bd d185 8e3d b271 51bd

conv3.0.weight f4 [64, 32, 3, 3]
-0.0089471815 0.03596021 -0.0019860466 -0.049786158 0.039346177 0.060856063 -0.020487266 0.04247142
0.052509096 -0.013744721 -0.06347006 -0.014098756 0.036873545 0.013964265 0.059159867 -0.043865714
0.027787177 -0.021827701 0.033824947 -0.049847145 -0.023700211 -0.009100643 -0.05020412 0.040740542
-0.031752642 0.040881652 0.05066288 -0.015985956 -0.019106409 0.008858468 -0.03816973 -0.052218255
0.046096615 -0.030091072 -0.004116069 0.02656595 0.05199048 -0.004876452 0.032531425 -0.040180873
0.05110939 0.01849274 -0.015311107 -0.046791743 0.06265895 -0.03779488 -0.041875485 -0.06299112
-0.028102228 0.0071016476 0.042108346 -0.022709696 0.03554793 -0.0005975035 -0.027106106 0.027701573
0.013680461 0.00056174997 0.026240792 0.034677707 0.034873612 0.032863528 -0.003125239 0.04150243
-0.010687885 -0.01608828 -0.05796169 -0.013562067 0.016664056 0.0074526104 0.03964476 0.042341705
0.0072974493 -0.0021953867 -0.056656085 -0.055980988 -0.0070258663 0.005883638 -0.051225483 0.05330965
0.014612798 -0.022163998 0.022868752 0.01872809 0.03153165 -0.04716989 -0.019147092 -0.007854728
0.019987322 0.021988075 0.035054173 0.039798543 -0.008127831 0.0018449036 0.029196775 0.041284554
0.01261494 0.064243235 0.0587387 0.0029095786 -0.03458175 0.02413199 0.00034435524 -0.010033605
0.046980664 -0.017212182 0.02067069 0.04771497 -0.026718328 0.046382 0.041797325 0.04291881
-0.035600126 -0.040694095 0.027092256 -0.006496686 0.009386438 0.041386556 0.038972322 0.017484857
-0.018469796 0.022492673 -0.025850447 0.008572751 -0.018667098 -0.051227108 -0.058652498 -0.046602044
-0.0182405 -0.028216543 -0.033255335 0.05177822 0.009369531 -0.003354895 0.051509492 0.039518926
0.054938033 -0.014105868 0.02161899 -0.05199348 -0.025786191 -0.01953018 -0.007211853 0.04650448
0.0012041321 -0.033690706 -0.01177502 -0.05908623 0.008690685 -0.025535116 -0.011596991 -0.04758957
0.015812298 0.00063626614 -0.01926013 -0.030220442 -0.014778718 -0.022849549 0.00669487 0.020427639
0.03621406 0.03628154 0.03423499 -0.05851717 -0.030877916 -0.00051858975 -0.011455407 -0.018974228
0.040500738 0.033773143 -0.049311586 -0.042511072 -0.06233983 -0.014842487 -0.023437643 -0.014014437
-0.018196685 0.022092745 0.053983532 0.05452031 0.059735097 0.023086758 0.028217882 -0.040053204
-0.028036257 -0.012366001 0.044295404 0.017185245 -0.004211024 -0.034750674 0.008423712 0.03986111
0.05336969 -0.0024382547 -0.00036904847 0.054038346 0.05289244 -0.048743848 0.049735837 -0.04258888
-0.053986397 0.042415816 -0.020001853 0.055878278 -0.031875446 0.038968764 0.028378349 -0.0018263719
-0.04783149 -0.036735497 -0.047767505 0.0027061363 0.04393418 -0.061241064 0.041969635 0.047216747
0.030731758 0.0038825823 -0.03055916 -0.054246515 0.009142674 -0.03376385 -0.030644827 -0.0070470404
0.057922963 -0.05091156 -0.02427236 -0.009684364 0.015283201 -0.040756408 -0.026672313 0.049492806
-0.043026857 -0.0015765384 -0.036944486 0.03482567 -0.04499645 -0.042826034 0.040866498 -0.05335274
-0.051500425 0.032977793 0.030152326 -0.053702034 3.9656185e-05 -0.037298024 -0.04808962 0.008511219
0.010074646 -0.036351223 -0.035443068 0.05168004 0.0505642 -0.049460594 -0.009503215 0.029358955
00000000: 3397 12bc 034b 133d 5528 02bb 92ec 4bbd
00000010: 7529 213d 3544 793d e9d4 a7bc 83f6 2d3d
00000020: c713 573d 8a31 61bc 97fc 81bd 78fe 66bc
00000030: b708 173d 5fca 643c 9e51 723d 89ac 33bd
00000040: efa1 e33c 02d0 b2bc 078c 0a3d 852c 4cbd
00000050: f226 c2bc dd1a 15bc d6a2 4dbd 8edf 263d
00000060: 0f0f 02bd 8573 273d e183 4f3d fbf4 82bc
00000070: 0b85 9cbc 1c23 113c dd57 1cbd cfe2 55bd
00000080: cecf 3c3d 8d81 f6bc 17e0 86bb d6a0 d93c
00000090: f8f3 543d a5ca 9fbb ac3f 053d b394 24bd
000000a0: 1458 513d 167e 973c 70db 7abc b3a8 3fbd
000000b0: 5653 803d cece 1abd a185 2bbd 7d01 81bd
000000c0: a536 e6bc f0b4 e83b cd79 2c3d af09 babc
000000d0: b59a 113d c8a1 1cba a00d debc 69ee e23c
000000e0: 0324 603c 6742 133a eef6 d63c 360a 0e3d
000000f0: a2d7 0e3d e89b 063d cfd0 4cbb 74fe 293d
00000100: 3d1c 2fbc 92cb 83bc 3d69 6dbd 6f33 5ebc
00000110: 0f83 883c 0735 f43b 8b62 223d 7f6e 2d3d
00000120: 711f ef3b 7ae0 0fbb 3610 68bd 524c 65bd
00000130: 3d39 e6bb 88cb c03b d0d1 51bd 385b 5a3d
00000140: 846a 6f3c 4691 b5bc 4057 bb3c a76b 993c
00000150: 5527 013d 3735 41bd 5dda 9cbc 1eb1 00bc
00000160: 74bc a33c 5620 b43c f794 0f3d cc03 233d
00000170: 982a 05bc b1d0 f13a 132e ef3c fe19 293d
00000180: e5ae 4e3c f591 833d fe97 703d a1ae 3e3b
00000190: 98a5 0dbd 73b0 c53c 948a b439 fd63 24bc
000001a0: cc6e 403d 9000 8dbc 9455 a93c c670 433d
000001b0: 65e0 dabc 0dfb 3d3d ac33 2b3d a2cb 2f3d
000001c0: 70d1 11bd daae 26bd 94f0 dd3c 27e2 d4bb
000001d0: 93c9 193c f384 293d 71a1 1f3d 673c 8f3c
000001e0: f84d 97bc 8e42 b83c 51c4 d3bc b974 0c3c
000001f0: beeb 98bc 84d3 51bd 9a3d 70bd c9e1 3ebd
00000200: 1a6d 95bc 6126 e7bc bf36 08bd 6615 543d
00000210: a982 193c ccdd 5bbb 9efb 523d 99de 213d
00000220: b406 613d 4c1c 67bc 4f1a b13c 1ef7 54bd
00000230: 903d d3bc c2fd 9fbc 6851 ecbb 7b7b 3e3d
00000240: f8d3 9d3a 44ff 09bd 03ec 40bc 6704 72bd
00000250: 6063 0e3c 052f d1bc 4e01 3ebc 48ed 42bd
00000260: cb88 813c 19cb 263a 6cc7 9dbc dc90 f7bc
00000270: 7022 72bc fa2e bbbc a460 db3b dd57 a73c
00000280: 3255 143d f49b 143d fd39 0c3d b3af 6fbd
00000290: aff3 fcbc f8f1 07ba 76af 3bbc d76f 9bbc
000002a0: 1ae4 253d b555 0a3d f2fa 49bd 1720 2ebd
000002b0: 0d58 7fbd e72d 73bc 4d00 c0bc cf9c 65bc
000002c0: 3711 95bc d8fb b43c d61d 5d3d b050 5f3d
000002d0: caac 743d 7120 bd3c 3029 e73c d40e 24bd
000002e0: 4bac e5bc c49a 4abc 196f 353d 12c8 8c3c
000002f0: a1fc 89bb b956 0ebd 9c03 0a3c 6745 233d
00000300: 2d9a 5a3d 20cb 1fbb d97c c1b9 5057 5d3d
00000310: bea5 583d a1a7 47bd ceb7 4b3d ad71 2ebd
00000320: d720 5dbd 35bc 2d3d edda a3bc 9fe0 643d
00000330: d48f 02bd b69d 1f3d b679 e83c df62 efba
00000340: f4ea 43bd f677 16bd dca7 43bd 6f59 313b
00000350: 54f4 333d e9d7 7abd 5ae8 2b3d 5966 413d
00000360: 2bc1 fb3c ec72 7e3b 3457 fabc 9831 5ebd
00000370: 27cb 153c f64b 0abd dc0a fbbc dcea e6bb
00000380: a140 6d3d a488 50bd d4d6 c6bc 2bab 1ebc
00000390: 6466 7a3c 31f0 26bd e57f dabc f8b8 4a3d
000003a0: ee3c 30bd daa3 ceba 1a53 17bd 5da5 0e3d
000003b0: 334e 38bd 5a6a 2fbd a163 273d 6788 5abd
000003c0: 1cf2 52bd b913 073d 0302 f73c aaf6 5bbd
000003d0: 8154 2638 d0c5 18bd 9ff9 44bd a472 0b3c
000003e0: 2110 253c 05e5 14bd c02c 11bd 73ae 533d
000003f0: 681c 4f3d 3197 4abd 5fb3 1bbc 3182 f03c

conv3.0.bias f4 [64]
0.05297152 0.006351653 0.0409252 -0.021028817 0.031861268 0.007319001 0.047360133 0.017564027
0.035203487 0.03241384 0.039507896 0.06545325 0.0014629308 0.052624207 0.036578618 -0.06890296
-0.0047493717 -0.048197143 0.06067759 -0.011358901 0.055562727 -0.050621226 -0.029289497 0.014200921
0.037899673 -0.012900681 0.016347164 0.06009441 0.048897408 0.025215795 -0.015999366 0.025140747
0.041603792 -0.045681454 0.05097038 0.061008036 -0.0010473044 0.03651773 -0.05782839 -0.03152653
-0.030492578 -0.01933931 0.0091219805 -0.020003976 -0.033024423 -0.01874014 0.0073817647 -0.041214086
0.02900051 0.059094056 0.03520659 -0.038109567 -0.024486214 -0.00027361393 -0.017910378 0.024084974
0.0689599 -0.038954042 0.012112758 0.060119443 -0.014195465 -0.011955902 -0.03556652 -0.0079673305
00000000: aaf8 583d 8721 d03b 2fa1 273d a044 acbc
00000010: f680 023d 3bd4 ef3b b3fc 413d 6fe2 8f3c
00000020: 8831 103d 60c4 043d 08d3 213d 5b0c 863d
00000030: d0bf bf3a 7b8c 573d 76d3 153d ff1c 8dbd
00000040: 9ea0 9bbb 5e6a 45bd 1189 783d af1a 3abc
00000050: be95 633d 3458 4fbd 87f0 efbc fbaa 683c
00000060: b03c 1b3d 615d 53bc 7dea 853c 8e25 763d
00000070: a648 483d 5b91 ce3c 1a11 83bc f8f3 cd3c
00000080: bd68 2a3d 7a1c 3bbd 51c6 503d 90e3 793d
00000090: b445 89ba 9e93 153d 76dd 6cbd f621 01bd
000000a0: 92cb f9bc 796d 9ebc 5c74 153c 61df a3bc
000000b0: 9e44 07bd ec84 99bc bbe2 f13b 1ad0 28bd
000000c0: 7a92 ed3c 9c0c 723d c934 103d c718 1cbd
000000d0: 5097 c8bc d773 8fb9 c9b8 92bc da4d c53c
000000e0: d93a 8d3d 468e 1fbd 9774 463c ce3f 763d
000000f0: 1894 68bc b0e2 43bc 33ae 11bd 6889 02bc

conv4.0.weight f4 [128, 64, 3, 3]
0.027085612 0.049329452 0.02705047 0.018006627 0.051744007 0.006891265 0.042525433 -0.0036295522
-0.015711326 0.0490731 -0.024960017 0.024759002 0.0021909848 0.018750494 0.03679826 -0.015191037
0.010534468 0.040922992 0.0046332837 0.006006242 -0.0015025551 -0.031957265 0.014524837 0.0215343
0.033604115 0.03288775 0.040298607 -0.025511257 -0.014719792 -0.036045413 0.024052529 0.024635017
0.020498196 -0.009710649 0.005531559 0.031886443 0.040655766 -0.03436907 -0.030376563 0.022255767
0.0066510295 -0.030307492 -0.02445774 0.007956166 0.019978607 -0.026436096 0.04518275 0.03822821
-0.014702738 0.0125869 0.051072285 0.0002426936 0.030027816 0.033491615 0.04081248 0.03843301
0.029255442 -0.020369753 0.010696938 -0.014536679 0.020111319 0.021921093 0.01423235 0.04037298
0.014580695 -0.032615926 -0.002531344 0.049535237 -0.041622616 -0.03277266 0.00055196555 -0.0016451869
-0.025097532 0.016204761 -0.023359612 -0.006749681 0.019327335 0.03525294 -0.017246306 0.052258503
0.015264376 -0.032239184 -0.003541802 0.002750068 0.021730935 -0.016972495 0.055456724 -0.017010698
0.018727608 0.03871357 0.027323846 0.034067992 0.023967113 0.023885392 -0.0026003777 0.009699487
0.022326581 -0.014131447 -0.021868661 0.014657306 0.026662674 0.009612601 0.031423848 0.039281458
0.0033273743 -0.030105237 0.024180239 0.04450833 -0.028122982 0.0011050412 -0.0149511695 0.029289097
0.011929742 -0.0038634778 0.03391654 -0.00787536 -0.038818583 0.04874425 0.014322518 0.009695763
0.04039276 0.052267477 -0.04530256 0.028806387 -0.004999229 -0.006593884 0.033704624 0.041983157
-0.0032884127 -0.043774392 -0.00905643 -0.01741369 -0.013587011 0.012233423 0.004850777 -0.000637795
0.01939304 -0.04852422 0.022854857 0.013256296 0.036620144 -0.021681668 0.029591136 -0.040292803
-0.033488814 0.008056321 -0.017080734 -0.022477262 -0.010649544 -0.027624177 0.019871218 0.013575538
-0.0058413586 0.029356254 0.028902145 -0.044751395 -0.013555273 0.0140756 -0.010440715 0.036635548
0.052837845 -0.002011526 0.0356701 0.04787082 -0.02164312 0.023034867 0.035931814 0.011115865
0.045361213 -0.012762572 -0.0051087113 0.03986595 -0.010123663 -0.031572815 -0.023544166 -0.014332296
-0.035791755 0.032436553 -0.0067416937 0.05012538 0.009895926 -0.016478691 0.019590167 0.046101306
0.041789304 0.06097057 0.0023683556 0.0060287365 0.008238428 0.012332765 -0.02558938 0.0004647392
0.036237825 0.034450646 -0.009521472 0.037507083 -0.010713112 0.015291152 -0.0034069344 -0.014832631
-0.033677205 0.029009353 0.03537421 -0.015689554 0.04549177 -0.014006618 0.019730045 0.030686168
0.04614206 -0.006524058 -0.0087228315 0.047381096 -0.019974241 0.02568466 -0.006909572 0.008766507
0.011745773 -0.020614274 -0.02792806 0.022924036 0.03283787 -0.016790725 0.023251051 -0.01151507
0.008114559 0.017269555 -0.051283468 -0.0133321425 -0.016760008 -0.0056761857 -0.003134216 -0.038994126
-0.03285617 -0.006554525 0.0052520935 0.049789157 -0.028222201 0.03217788 0.004136937 0.04001242
-0.013667724 -0.003626146 0.013369238 0.011390209 -0.01655816 0.013979752 0.02040287 0.0025711104
0.02921653 0.01742121 0.027661623 0.013756154 0.048071794 -0.00234571 0.0050692544 0.03485902
00000000: a5e2 dd3c ae0d 4a3d f298 dd3c a282 933c
00000010: 86f1 533d 1fd0 e13b 262f 2e3d c8dd 6dbb
00000020: 0ab5 80bc e000 493d f378 ccbc 64d3 ca3c
00000030: a096 0f3b a39a 993c c6b9 163d d4e3 78bc
00000040: c398 2c3c de9e 273d cdd2 973b 02d0 c43b
00000050: 62f1 c4ba 9fe5 02bd 95f9 6d3c b368 b03c
00000060: 78a4 093d 4eb5 063d 2710 253d fcfc d0bc
00000070: 482b 71bc 5ba4 13bd cf09 c53c 60cf c93c
00000080: d5eb a73c 6a19 1fbc 1542 b53b 5c9b 023d
00000090: a986 263d 95c6 0cbd 45d8 f8bc ba51 b63c
000000a0: e1f0 d93b 6b47 f8bc 995b c8bc 945a 023c
000000b0: 2daa a33c 8390 d8bc 8c11 393d 2f95 1c3d
000000c0: c1e3 70bc 4939 4e3c 2c31 513d 917b 7e39
000000d0: e5fc f53c 812e 093d fd2a 273d ef6b 1d3d
000000e0: 1ca9 ef3c 78de a6bc 3642 2f3c 402b 6ebc
000000f0: 7ec0 a43c dd93 b33c cd2e 693c 235e 253d
00000100: dee3 6e3c 4798 05bd e8e4 25bb 76e5 4a3d
00000110: 7a7c 2abd a03c 06bd c8b1 103a 50a3 d7ba
00000120: 5799 cdbc d9bf 843c a85c bfbc 6e2c ddbb
00000130: 5c54 9e3c 6365 103d 2048 8dbc 030d 563d
00000140: 6f17 7a3c 3c0d 04bd 941d 68bb 7c3a 343b
00000150: 1305 b23c e709 8bbc 9726 633d 055a 8bbc
00000160: a46a 993c 1f92 1e3d 42d6 df3c e18a 0b3d
00000170: ae56 c43c 4cab c33c 196b 2abb 99ea 1e3c
00000180: 3ce6 b63c 9687 67bc e825 b3bc 3225 703c
00000190: ae6b da3c 2c7e 1d3c 4bb6 003d 98e5 203d
000001a0: 1410 5a3b 429f f6bc a315 c63c 5e4e 363d
000001b0: 2b62 e6bc 08d7 903a c0f5 74bc b0ef ef3c
000001c0: f774 433c 6732 7dbb 12ec 0a3d a707 01bc
000001d0: 3c00 1fbd 0da8 473d ffa8 6a3c fada 1e3c
000001e0: e172 253d 6c16 563d 2d8f 39bd 5ffb eb3c
000001f0: 93d0 a3bb 8211 d8bb dc0d 0a3d 88f6 2b3d
00000200: 6982 57bb c74c 33bd 6c61 14bc 28a7 8ebc
00000210: 0e9c 5ebc b26e 483c 44f3 9e3b b331 27ba
00000220: 27de 9e3c 55c1 46bd 1c3a bb3c ef30 593c
00000230: 01ff 153d c19d b1bc 1c69 f23c 110a 25bd
00000240: 912b 09bd a9fe 033c e5ec 8bbc 3c22 b8bc
00000250: 6d7b 2ebc 194c e2bc f7c8 a23c ef6b 5e3c
00000260: de68 bfbb 877c f03c 31c4 ec3c 3d4d 37bd
00000270: f016 5ebc 589d 663c 880f 2bbc 280f 163d
00000280: 7f6c 583d ced3 03bb d01a 123d 3114 443d
00000290: ea4c b1bc 9eb3 bc3c 3d2d 133d 511f 363c
000002a0: aecc 393d 1b1a 51bc fa66 a7bb 7a4a 233d
000002b0: b8dd 25bc 7f52 01bd b2df c0bc 02d2 6abc
000002c0: 609a 12bd 31dc 043d 6de9 dcbb 4550 4d3d
000002d0: 8622 223c 52fe 86bc 8f7b a03c b9d4 3c3d
000002e0: 432b 2b3d 47bc 793d 6a36 1b3b b58c c53b
000002f0: 79fa 063c 5e0f 4a3c d2a0 d1bc 3da8 f339
00000300: 1d6e 143d 1f1c 0d3d f3ff 1bbc 07a1 193d
00000310: 0c86 2fbc bd87 7a3c e046 5fbb 9004 73bc
00000320: 1cf1 09bd 06a5 ed3c 8ce4 103d 6187 80bc
00000330: 9455 3a3d 047c 65bc e7a0 a13c 8f61 fb3c
00000340: 75ff 3c3d c4c7 d5bb 35ea 0ebc ae12 423d
00000350: 05a1 a3bc a368 d23c b169 e2bb 65a1 0f3c
00000360: 5871 403c 44df a8bc 63c9 e4bc 30cb bb3c
00000370: 0181 063d b48c 89bc fd78 be3c b4a9 3cbc
00000380: edf2 043c e278 8d3c 9d0e 52bd 0f6f 5abc
00000390: 494c 89bc 4cff b9bb 6b67 4dbb 4eb8 1fbd
000003a0: 3194 06bd 57c7 d6bb c119 ac3b b7ef 4b3d
000003b0: 3f32 e7bc f4cc 033d 258f 873b 10e4 233d
000003c0: 97ee 5fbc a2a4 6dbb a60a 5b3c 009e 3a3c
000003d0: faa4 87bc 540b 653c eb23 a73c 1380 283b
000003e0: 8157 ef3c edb6 8e3c a19a e23c 7e61 613c
000003f0: eee6 443d 7cba 19bb fd1b a63b 55c8 0e3d

conv4.0.bias f4 [128]
0.018632147 -0.0030025688 0.034485307 -0.02572898 -0.037140917 -0.031044528 0.046560243 -0.03075271
0.026670888 -0.030704029 0.034638178 -0.0108434735 0.034590565 0.028989457 0.035131544 0.021465719
0.0017900652 -0.036484387 0.02282532 0.018684728 0.02801725 0.037350547 -0.013006842 0.0317518
-0.021439916 0.027229948 -0.009982142 0.010791101 -0.03410617 0.0065507554 0.013623463 -0.020215793
-0.03650039 0.007433843 0.024449226 -0.01976211 0.027046995 -0.004623368 0.019268043 0.033566907
-0.043724142 0.03762562 0.04850193 -0.038183313 -0.017589504 -0.010716464 -0.022767995 -0.005537939
0.013049595 0.038975585 -0.0046932283 -0.03136259 0.0105348695 0.020162608 -0.013942018 -0.018200463
-0.015239961 -0.03580875 -0.01777954 0.039748404 0.008357373 -0.008708609 0.029310556 0.055421196
0.02422947 -0.029742945 0.040080395 0.01773967 -0.0133610945 0.026770864 -0.026676774 0.022672612
0.032391936 -0.030656328 0.0074765002 0.04787889 0.0206828 -0.011275217 0.021890707 0.043266527
-0.010413308 -0.020278607 0.021674339 -0.030581078 0.035780516 0.007070281 0.024745727 0.021310216
0.026771486 0.0478248 -0.023246342 0.0026996054 -0.03384128 -0.013733774 0.029719995 -0.03072493
0.05484806 -0.0054590167 0.046133205 -0.02421527 0.046598632 -0.04333839 0.028526466 0.015997345
0.032132853 -0.002258446 -0.03827818 -0.00025098416 0.040748846 0.045469526 0.031247659 -0.009478003
-0.00804861 -0.00726656 0.05567157 0.033553373 -0.0056680115 -0.035546098 -0.036490824 0.030847285
-0.041300215 0.012655545 0.022096036 0.008968995 -0.033049393 -0.02008903 0.0031042467 0.003026843
00000000: 72a2 983c bfc6 44bb 7740 0d3d 95c5 d2bc
00000010: 1321 18bd 1851 febc f4b5 3e3d 1bed fbbc
00000020: e87c da3c 0487 fbbc c3e0 0d3d d3a8 31bc
00000030: d6ae 0d3d 4c7b ed3c 18e6 0f3d e0d8 af3c
00000040: 9fa0 ea3a a770 15bd 2afc ba3c b710 993c
00000050: 6f84 e53c e3fc 183d a61a 55bc 2d0e 023d
00000060: c3a2 afbc 5711 df3c 238c 23bc 28cd 303c
00000070: e9b2 0bbd b8a7 d63b f234 5f3c 979b a5bc
00000080: 6f81 15bd 9897 f33b be49 c83c 26e4 a1bc
00000090: a991 dd3c 9f7f 97bb 04d8 9d3c 747d 093d
000000a0: 1618 33bd 521d 1a3d f6a9 463d 1b66 1cbd
000000b0: dd17 90bc 1c94 2fbc f283 babc 9977 b5bb
000000c0: f8cd 553c dda4 1f3d a7c9 99bb 0f76 00bd
000000d0: 729a 2c3c 0e2c a53c 106d 64bc 2319 95bc
000000e0: 08b1 79bc 32ac 12bd 66a6 91bc 39cf 223d
000000f0: 5ded 083c 8eae 0ebc b11c f03c 5601 633d
00000100: e27c c63c 7aa7 f3bc 572b 243d c952 913c
00000110: 7ee8 5abc 924e db3c 4089 dabc eabb b93c
00000120: 68ad 043d fb22 fbbc 6efd f43b a81c 443d
00000130: fa6e a93c b0bb 38bc 2454 b33c 3e38 313d
00000140: 949c 2abc 521f a6bc 628e b13c 2b85 fabc
00000150: 978e 123d d1ad e73b 8db7 ca3c c392 ae3c
00000160: e04f db3c f0e3 433d 1d6f bebc ddeb 303b
00000170: 279d 0abd a003 61bc 5977 f33c d9b2 fbbc
00000180: 5ca8 603d 8de1 b2bb 2cf6 3c3d 1a5f c6bc
00000190: 35de 3e3d 9883 31bd 56b0 e93c dd0c 833c
000001a0: bd9d 033d 7002 14bb 95c9 1cbd 8696 83b9
000001b0: 43e8 263d 413e 3a3d 17fb ff3c a049 1bbc
000001c0: 51de 03bc 531c eebb df07 643d 436f 093d
000001d0: baba b9bb c998 11bd 6777 15bd 72b3 fc3c
000001e0: 6a2a 29bd 3459 4f3c bf02 b53c b1f2 123c
000001f0: cd5e 07bd c091 a4bc 9e70 4b3b 005e 463b

linear.weight f4 [2, 2560]
-0.005557347 0.004075264 0.014479322 -0.025590343 0.019923678 0.0071446635 -0.017198168 -0.007914887
0.014613337 0.01633158 0.009087873 0.014541042 -0.0047740308 -0.0020584406 0.0036264043 0.016992487
0.008637395 -0.0037706434 -0.00043281488 0.015584987 0.005465382 0.024239762 -0.022092143 -0.02267913
0.013985461 -0.014501871 0.0071453503 -0.029741786 -0.0100596575 -0.009732784 -0.008234832 0.016076425
0.01945508 0.0055378503 0.00493009 0.013150677 0.0070506986 -0.0058478345 0.002512268 0.024796007
0.018653823 0.023284545 0.0009733443 0.009235445 -0.0071933395 -0.0025227368 -0.0072930213 0.011951422
0.015821446 -0.009297093 -0.0038493003 0.019829154 0.030394297 -0.008596268 -0.002038559 0.0010960327
0.013148624 0.0009154789 -0.0054889554 0.0059736446 0.0013302042 -0.0010990025 -0.0089767175 0.0049422565
-0.013796968 -0.00011878178 -0.0027671424 -0.027462015 0.009000283 0.00038477473 -0.0070168586 -0.026381029
-0.022510838 -0.009915167 -0.007840573 0.004440922 -0.008202467 -0.027723342 -0.0070531233 -0.014332557
-0.0150937075 0.0064372937 0.013668966 -0.021228407 -0.0020437166 -0.00742094 0.010253942 0.0031535504
-0.008517125 -0.018874742 0.0008358415 0.009921752 -0.0032400768 -0.0058279866 0.004067527 0.009100787
-0.0020426102 -0.001469057 0.01744786 0.012659954 -0.010099269 0.0011522972 0.009899658 -0.0073415986
-0.016872004 -0.020467592 -0.02815594 0.0051777107 -0.002248632 -0.0075298464 -0.007563809 -0.02273502
-0.006185917 -0.0059763407 -0.00092505396 -0.0017419739 -0.010556166 0.0130040655 0.015647179 0.008256659
0.011775758 -0.0020885223 -0.0013109577 0.019316321 0.017310685 0.006640268 0.0054281484 0.013859385
0.022433655 0.025276233 0.01701714 -0.0021868162 0.007772679 0.016496321 0.012502325 -0.007917892
0.020793429 0.0020537872 0.020483788 -0.001177198 0.001316569 0.0033931213 -0.02008832 -0.00787838
0.013467705 -0.005249689 -0.011444898 -0.02042346 0.00046070377 0.0037857709 -0.023819821 -0.014850595
-0.024508428 0.004133237 0.0025542525 -0.006750242 -0.020396382 -0.01265764 -0.019796258 -0.018575028
0.0034983528 -0.012647046 -0.0042104 0.016082747 0.018508758 -0.0054461886 -0.019811064 -0.004745599
0.02914367 0.012203955 0.0066883885 -0.014839565 0.026231553 0.012119857 -0.011978313 0.022847187
0.019095426 0.012248113 0.009185942 -0.0005732347 -0.025299978 -0.011664021 -0.025734134 -0.022784987
0.0015424916 -0.012295083 -0.009938978 -0.008365462 0.0037515424 -0.02512165 -0.016743273 -0.0001512751
0.00706487 -0.015886968 -0.009686734 -0.019459749 -0.01241442 0.0069679553 0.014019836 0.012543585
0.015104368 -0.007198379 -0.0075186864 0.009114132 -0.0026246945 -0.0045979354 -0.026504476 -0.00025826966
-0.0053228317 0.0025344756 0.015135807 0.019768117 0.01843917 0.005471078 -0.0051508993 0.021419894
-0.0025432298 0.0033367688 0.019417057 0.022823464 0.012083171 0.007312671 -0.0066309157 -0.026868453
0.01897674 0.00782604 -0.025552677 0.0023726719 -0.008458604 -0.002972962 -0.0050354134 0.009534264
-0.0007450665 0.017754322 0.014654041 0.013353008 -0.00040843207 -0.0008589943 0.023960961 -0.003325543
0.0079912245 0.011131985 0.011366542 -0.016478544 -0.0041004242 -0.015300682 0.008167984 -0.01247709
0.031150052 -0.007368008 -0.010392307 0.007572471 -0.005645959 0.013957624 0.013438041 0.0152413575
00000000: 681a b6bb cb89 853b ae3a 6d3c d7a2 d1bc
00000010: fb36 a33c c81d ea3b 2ce3 8cbc 71ad 01bc
00000020: c76c 6f3c cec9 853c 4de5 143c 8d3d 6e3c
00000030: 796f 9cbb e7e6 06bb f8a8 6d3b d433 8b3c
00000040: dc83 0d3c e61c 77bb 6eeb e2b9 2c58 7f3c
00000050: f216 b33b 7792 c63c 95fa b4bc 95c9 b9bc
00000060: 4623 653c 4199 6dbc 8b23 ea3b 0ca5 f3bc
00000070: 43d1 24bc 4176 1fbc 64eb 06bc b5b2 833c
00000080: 4360 9f3c db76 b53b 988c a13b f075 573c
00000090: 8c09 e73b 319f bfbb dda4 243b ff20 cb3c
000000a0: e7cf 983c 3bbf be3c 0828 7f3a 4450 173c
000000b0: 1bb6 ebbb 8054 25bb 4cfa eebb e6cf 433c
000000c0: fa9b 813c d652 18bc 8b44 7cbb c070 a23c
000000d0: 76fd f83c 5cd7 0cbc 5899 05bb c1a8 8f3a
000000e0: 546d 573c c0fc 6f3a b2dc b3bb 90be c33b
000000f0: 3f5a ae3a 680c 90ba 1513 13bc a7f2 a13b
00000100: ae0c 62bc 7c1a f9b8 f258 35bb 05f8 e0bc
00000110: ec75 133c 97bb c939 aded e5bb 071d d8bc
00000120: a668 b8bc 3973 22bc bf75 00bc 2785 913b
00000130: a463 06bc 101c e3bc e31d e7bb 1ad3 6abc
00000140: 994b 77bc efef d23b ccf3 5f3c 32e7 adbc
00000150: e0ef 05bb 5b2b f3bb 2600 283c ccab 4e3b
00000160: 698b 0bbc 349f 9abc 601c 5b3a d88e 223c
00000170: 7857 54bb b2f8 bebb e448 853b 781b 153c
00000180: 50dd 05bb 608d c0ba d1ee 8e3c b26b 4f3c
00000190: 6877 25bc ae08 973a 2d32 223c cb91 f0bb
000001a0: 2837 8abc a7ab a7bc 49a7 e6bc c9a9 a93b
000001b0: c95d 13bb eebc f6bb d4d9 f7bb cb3e babc
000001c0: 3cb3 cabb 2ed5 c3bb 527f 72ba f252 e4ba
000001d0: c5f3 2cbc 010f 553c 832e 803c f046 073c
000001e0: 1cef 403c 97df 08bb 71d4 abba 433d 9e3c
000001f0: 23cf 8d3c 9b96 d93b 9cde b13b 7912 633c
00000200: c9c6 b73c 1a10 cf3c 8767 8b3c b050 0fbb
00000210: f5b1 fe3b 4b23 873c 8dd6 4c3c 0cba 01bc
00000220: fb56 aa3c d598 063b 9ecd a73c 364c 9aba
00000230: ba90 ac3a 215f 5e3b 4390 a4bc 5214 01bc
00000240: a6a7 5c3c 9505 acbb 6283 3bbc 1a4f a7bc
00000250: 9d8a f139 b21a 783b c921 c3bc e94f 73bc
00000260: e6c5 c8bc 1b70 873b 3f65 273b 2231 ddbb
00000270: 5016 a7bc fd61 4fbc c32b a2bc a82a 98bc
00000280: 9f44 653b 8e35 4fbc 65f7 89bb f7bf 833c
00000290: ae9f 973c f175 b2bb d04a a2bc f880 9bbb
000002a0: b5be ee3c 19f3 473c 452a db3b a621 73bc
000002b0: 8ee3 d63c 5d92 463c b040 44bc 062a bb3c
000002c0: 036e 9c3c 4fac 483c a280 163c 2145 16ba
000002d0: e641 cfbc 731a 3fbc 64d0 d2bc 95a7 babc
000002e0: 6e2d ca3a 5171 49bc 18d7 22bc 4a0f 09bc
000002f0: 70dc 753b ebcb cdbc 3029 89bc 9a9f 1eb9
00000300: 6d80 e73b 6325 82bc 1bb5 1ebc 0d6a 9fbc
00000310: da65 4bbc 7253 e43b 74b3 653c 9c83 4d3c
00000320: 5078 773c 61e0 ebbb 505f f6bb 7153 153c
00000330: 1103 2cbb 47aa 96bb ea1f d9bc 5e68 87b9
00000340: 266b aebb 7219 263b 2dfc 773c bff0 a13c
00000350: be0d 973c bb46 b33b e0c8 a8bb c678 af3c
00000360: 51ac 26bb b1ad 5a3b 8510 9f3c 46f8 ba3c
00000370: 7ef8 453c 219f ef3b 2748 d9bb 3b1b dcbc
00000380: 1c75 9b3c ca38 003c d953 d1bc d47e 1b3b
00000390: f595 0abc 07d6 42bb 1c00 a5bb 9a35 1c3c
000003a0: 9150 43ba 8371 913c 8117 703c 93c6 5a3c
000003b0: d322 d6b9 222e 61ba c749 c43c 5af1 59bb
000003c0: a0ed 023c ee62 363c bc3a 3a3c 03fe 86bc
000003d0: da5c 86bb b6af 7abc 02d3 053c b56c 4cbc
000003e0: 652e ff3c 556f f1bb 7f44 2abc 7e22 f83b
000003f0: bd01 b9bb 85ae 643c 3b2b 5c3c e3b6 793c

linear.bias f4 [2]
0.030488817 -0.03031299
00000000: afc3 f93c f352 f8bc
